ml-inference-with-lambda/src/model.tflite (tflite, 446928 bytes, 6 tensors)

model/conv2d_1/BiasAdd/ReadVariableOp/resource f4 [64]
0	0xbda2807a	-0.07934661
1	0xbd369106	-0.0445719
2	0xbdcad2d5	-0.09903494
3	0xbd7c4df7	-0.06159779
4	0xbd04ed9c	-0.032453164
5	0xbbaff4ae	-0.0053697443
6	0xbd74e9af	-0.05979317
7	0xbae8dc9e	-0.0017765944
8	0xbd2f53ad	-0.04280441
9	0xbcddcadd	-0.027074272
10	0xbcf63747	-0.030055655
11	0xbd56de8b	-0.052458327
12	0xbc4fd217	-0.012684367
13	0x3cd4eb5d	0.025991136
14	0xbd31e44b	-0.043430608
15	0xbca87492	-0.020563398
16	0x3c6d2b6c	0.014475685
17	0xbd03c66a	-0.032171644
18	0xbceff23d	-0.029290313
19	0xbc4c5fae	-0.012473984
20	0xbd4df0c2	-0.050278433
21	0xbcc5b101	-0.024132254
22	0xbd2424ca	-0.040074147
23	0xbd5f27b4	-0.054481223
24	0xbcf1734d	-0.029473925
25	0xbbacc25f	-0.0052721943
26	0xbd0111b6	-0.03151103
27	0xbdcf33d4	-0.10117307
28	0xbb324e67	-0.0027207376
29	0x3dfafe14	0.12255493
30	0xbccb7ef4	-0.02484081
31	0xbc5d70e0	-0.013515681
32	0xbc54f876	-0.012998691
33	0x3aa342f0	0.0012455862
34	0x3d179945	0.037011404
35	0xbd427331	-0.047473136
36	0xbd4e3780	-0.050345898
37	0xbcb97548	-0.022638932
38	0xbd4cd56d	-0.050008226
39	0xbd5c898e	-0.05384212
40	0xbb01a755	-0.0019783576
41	0xbcec9eec	-0.028884374
42	0xbdb4bb62	-0.08824803
43	0xbd9ae04f	-0.07562315
44	0x3b1dc78e	0.0024075243
45	0x3d48da7c	0.049036488
46	0x3c7f38bb	0.01557749
47	0xbd0b7c5a	-0.034054138
48	0xbd4991fe	-0.049211495
49	0xbd7a2b5b	-0.061076503
50	0xbd8f46ce	-0.06995927
51	0xbbb9bfc5	-0.0056686127
52	0x3d1ab8bd	0.037773836
53	0xbda32a94	-0.079671055
54	0x3c26574b	0.010152648
55	0x3cd643fb	0.026155462
56	0xbc8a5863	-0.01688785
57	0x3cf0a74a	0.029376645
58	0xbdc6137b	-0.09671684
59	0xbde98125	-0.114015855
60	0xbcd19e35	-0.025588134
61	0x3a983195	0.0011611456
62	0xbd004a6d	-0.031320978
63	0x3c9548e1	0.018223228

model/dense/BiasAdd/ReadVariableOp/resource f4 [10]
0	0x3c4474f7	0.011990777
1	0x3ebeeeab	0.37291464
2	0x3db120be	0.08648823
3	0xbcabe419	-0.020982789
4	0xbd34c751	-0.044135395
5	0x3d496231	0.04916591
6	0xbcd0d8d4	-0.025494017
7	0x3e11d2a2	0.14240506
8	0xbeafdff5	-0.34350553
9	0xbdb9518a	-0.090487555

model/dense/MatMul f4 [10, 9216]
0	0x3ccee120	0.025253832
1	0x3d162083	0.0366521
2	0xbbcc0caf	-0.006227098
3	0xbc4adb33	-0.012381363
4	0xbd0f956e	-0.035054617
5	0xbda8d164	-0.08243063
6	0x3cb3a6c4	0.021930106
7	0x3d8ce9f5	0.06880561
8	0x3d156d5a	0.03648124
9	0xbcc5e1c3	-0.024155503
10	0xbc61c3c6	-0.013779586
11	0x3a987709	0.0011632155
12	0xbcb7d749	-0.022441523
13	0xbdf5cbc4	-0.12001756
14	0xbe03dc89	-0.12877096
15	0xbd37acc8	-0.04484251
16	0xba9cea83	-0.0011971745
17	0xbde25f60	-0.110533476
18	0xba4a221c	-0.0007710771
19	0xbd509888	-0.050926715
20	0x3c60707a	0.0136986915
21	0x3e0f8182	0.14014247
22	0xbc948b6e	-0.018132892
23	0xbc986143	-0.018601066
24	0x3d65fc8c	0.05614905
25	0x3bcaf124	0.006193297
26	0x3e0af92a	0.13571611
27	0x3c7107d1	0.014711336
28	0xbca60512	-0.02026609
29	0x39702b89	0.00022904402
30	0xbd09f679	-0.03368232
31	0xbe90644c	-0.2820152
32	0x3c3561ca	0.011070678
33	0x3c2fafcd	0.0107230665
34	0xbcf2117a	-0.02954935
35	0xbd25cf34	-0.040480807
36	0xbce504e7	-0.02795644
37	0xbabe115a	-0.0014501021
38	0x3b38c4ac	0.0028193397
39	0xbd2fe653	-0.042944264
40	0xbcf9a668	-0.030474856
41	0xbdd2bd1a	-0.102899745
42	0xbbfc9459	-0.007708114
43	0xbdaa7008	-0.083221495
44	0xbe167530	-0.14693141
45	0xbc690c9a	-0.014224196
46	0xbba2c95b	-0.004967851
47	0xbdc5d62e	-0.09659992
48	0xbbe1005d	-0.0068664984
49	0x3d795e79	0.06088111
50	0xbe1970b6	-0.14984402
51	0xbc6cfe83	-0.014464977
52	0xbe41506b	-0.18878333
53	0x3ab3e569	0.0013724986
54	0xbcc371d8	-0.023857996
55	0xbb814449	-0.003944908
56	0xbc26e5f2	-0.010186659
57	0xbc8e9e34	-0.017409422
58	0xbb345908	-0.0027518887
59	0xbdb77a63	-0.0895889
60	0xbc68b740	-0.014203846
61	0x3d7f399e	0.062310807
62	0xbd00e9b0	-0.03147286
63	0xbe45112a	-0.19244829
64	0xbc8f6aa9	-0.017506914
65	0xbe0a5db6	-0.1351231
66	0xbcba81c3	-0.022766953
67	0x3d4f29b0	0.050576866
68	0x3cbe93a6	0.023263764
69	0xbdf1841a	-0.117927745
70	0xbd3953b9	-0.04524586
71	0xbc57f9d5	-0.013182123
72	0xbc88d384	-0.016702421
73	0xbc28e280	-0.010307908
74	0xbd7335a8	-0.059377342
75	0x3dcddb15	0.10051552
76	0xbbcb54a8	-0.00620516
77	0xbe273e78	-0.16332424
78	0x3cc960f8	0.024582371
79	0xbda4297b	-0.08015724
80	0x3be4276f	0.0069627087
81	0xbd0c7688	-0.034292728
82	0xbc81ac9d	-0.015829379
83	0xbcc32adc	-0.023824148
84	0x3c2ba9d1	0.010477499
85	0x3d895fac	0.06707701
86	0x3c2374ea	0.009976605
87	0xbda654f9	-0.08121676
88	0xbb82599b	-0.003977967
89	0xbd5e23d8	-0.054233402
90	0xbcc9067d	-0.024539227
91	0x3b53dcbb	0.003232761
92	0xbd91d1d6	-0.07120101
93	0xbe11dcec	-0.14244431
94	0xbdf11175	-0.11770908
95	0xbdd0665c	-0.101757735
96	0x3c05beb2	0.008163141
97	0xbdbb8730	-0.09156644
98	0xbcf5039a	-0.029908944
99	0xbd8693ca	-0.06571157
100	0xbde17606	-0.11008839
101	0xbe8304ef	-0.25589702
102	0xbd94044d	-0.07227383
103	0xbcdee22f	-0.027207462
104	0xbc38165c	-0.0112358
105	0xbd073852	-0.033012696
106	0x3c386a3c	0.011255797
107	0xbd8b20d7	-0.06793373
108	0xbe9cdbf9	-0.30636576
109	0x3ccb7460	0.024835765
110	0xbc8eb3a5	-0.017419646
111	0x3cca363f	0.02468407
112	0xbd8be4f5	-0.068307795
113	0x3cc52f1f	0.02407032
114	0xbc9158a8	-0.01774247
115	0x3c448f8c	0.011997115
116	0xbd97cb4e	-0.07411824
117	0xbd4b009c	-0.049561128
118	0xbc9d930f	-0.019235162
119	0xbc99ce60	-0.018775165
120	0xbda8d69b	-0.08244058
121	0xbcb76a49	-0.022389548
122	0xbc99425c	-0.0187084
123	0xbb755078	-0.0037431996
124	0x3d072433	0.032993507
125	0x3db12b97	0.08650892
126	0xbe057f21	-0.13036777
127	0xbdd308d1	-0.10304416
128	0x3c8710f8	0.016487584
129	0xbdfd8f56	-0.12380855
130	0xbd491170	-0.049088895
131	0x3e0f2ca7	0.13981877
132	0xbdb639c5	-0.088977374
133	0xbd079f6a	-0.033111013
134	0x3d467123	0.04844774
135	0xbd4fef2b	-0.050765198
136	0xbc155e8a	-0.009116778
137	0x3d299909	0.04140571
138	0xbe2124ac	-0.15736645
139	0xbcd3ee9a	-0.02587061
140	0xbd20cf34	-0.039260104
141	0xbc012822	-0.007883104
142	0x3e4a5958	0.19760644
143	0xbd41bb00	-0.047297478
144	0xbb0ea3b3	-0.0021765053
145	0x3d8ce269	0.06879122
146	0xbcce20d4	-0.025162138
147	0x3d773662	0.060354598
148	0x3c683802	0.01417351
149	0x3c40955a	0.011754358
150	0xbce6d79b	-0.02817898
151	0x3e82a2a7	0.2551472
152	0x3d335567	0.043782618
153	0xbd1beefc	-0.03806971
154	0xbde49659	-0.11161489
155	0x3dee2ee9	0.11630041
156	0xbdc8dd1c	-0.09807798
157	0xbdc67dfc	-0.09691998
158	0x3cf10cf5	0.029425124
159	0xbdc51d4e	-0.0962473
160	0x3d7251cd	0.059160043
161	0x3db0f531	0.086405165
162	0xbcb51787	-0.022105945
163	0x3d207e82	0.039183147
164	0xbd8ce339	-0.06879277
165	0xbe3103f5	-0.17286666
166	0xbd9f8629	-0.07789261
167	0xbd1c8608	-0.03821376
168	0xbd101981	-0.035180572
169	0xbe5873c2	-0.21137908
170	0x3d93310a	0.07187088
171	0xbe0a6cb5	-0.13518031
172	0xbd00ecbd	-0.03147577
173	0xbc3fb75f	-0.011701434
174	0xbcbd1189	-0.02307965
175	0xbd76bb9e	-0.06023752
176	0xbdd9950c	-0.106241316
177	0xbda15bd4	-0.07878843
178	0xbe5ffba7	-0.21873342
179	0xbdfd5bae	-0.12371002
180	0xbc54513b	-0.01295882
181	0xbd74e12b	-0.05978505
182	0xbce49f29	-0.027907925
183	0xbc832ef5	-0.016013602
184	0xbcd827a9	-0.026386099
185	0xbd134745	-0.03595664
186	0xbb93f904	-0.004515769
187	0x3d2a6772	0.04160256
188	0x3da7a7e5	0.0818632
189	0x3ceeb6e3	0.029139942
190	0xbd7ed044	-0.062210336
191	0xbd9cedb6	-0.07662527
192	0x3bffd652	0.0078075314
193	0xbe93f6b8	-0.2889917
194	0x3d77546d	0.06038325
195	0xbdd5d9d9	-0.10441942
196	0xbd76109e	-0.06007444
197	0xbd7b837c	-0.06140469
198	0x3d4165c1	0.04721618
199	0xbdba3b30	-0.0909332
200	0x3ca3ecf6	0.020010453
201	0x3b45ef0e	0.0030202302
202	0xbde66ccf	-0.11251222
203	0x3e3ffd28	0.18748915
204	0xbe4c87c2	-0.19973662
205	0xbd03c0ec	-0.032166407
206	0xbd9973fb	-0.07492825
207	0x3d0d76a9	0.03453699
208	0x3bb056f8	0.0053814612
209	0xbda943d1	-0.08264888
210	0xbce5fd78	-0.028074965
211	0x3cc2d68c	0.023783945
212	0xbce0d6e0	-0.02744621
213	0xbdd611d1	-0.10452617
214	0xbdd78e9f	-0.1052525
215	0x3d51dc24	0.051235333
216	0x3da5bd63	0.08092763
217	0xbcf82c18	-0.030294463
218	0xbda42eb6	-0.08016722
219	0x3b61d95d	0.0034461834
220	0xbd326c1d	-0.043560136
221	0xbe14b3dc	-0.14521736
222	0xbd8cac77	-0.068688326
223	0xbd11f706	-0.03563597
224	0xbd86e9af	-0.0658754
225	0x3d403424	0.046924725
226	0xbe3a8bb3	-0.18217354
227	0x3c5a2443	0.0133143095
228	0xbc4b172e	-0.012395663
229	0xbc477beb	-0.01217554
230	0xbd8383f5	-0.06421653
231	0xbd9065d3	-0.070506714
232	0xbd8fd56b	-0.07023128
233	0xbe21e899	-0.15811385
234	0xbce13050	-0.027488858
235	0xbde15b6c	-0.110037655
236	0x3d645cf9	0.055752728
237	0xbca9d9fb	-0.020733824
238	0x3ce24d2f	0.027624695
239	0xbca0bb5d	-0.019620592
240	0xbd384487	-0.044987228
241	0x3d7e75f3	0.062124204
242	0x3defeaf2	0.11714734
243	0xbdf0418b	-0.11731251
244	0xbd996993	-0.0749084
245	0xbbf6efac	-0.0075358953
246	0xbce2a9e7	-0.027668906
247	0xbba8c4a0	-0.0051503927
248	0xbdedfd77	-0.1162061
249	0xbd4dbba0	-0.05022776
250	0xbcee744c	-0.029108189
251	0x3db57a2f	0.08861195
252	0x3b478d9a	0.0030449391
253	0x3d91a4e2	0.07111527
254	0x3c532752	0.012887793
255	0xbe14451b	-0.14479487

model/conv2d_1/Conv2D f4 [64, 3, 3, 32]
0	0xbe1e7a71	-0.15476395
1	0x3d87aec3	0.0662513
2	0xbb517fbf	-0.0031967012
3	0x3db8ef3a	0.09030004
4	0xbdd70b6d	-0.10500226
5	0xbdb8a54d	-0.090159036
6	0xbe2d1c96	-0.16905436
7	0xbe5a7e74	-0.213373
8	0xbe02996d	-0.1275384
9	0x3c83a986	0.016072046
10	0xbedb1857	-0.42792007
11	0xbcd856d7	-0.026408596
12	0x3db69626	0.08915357
13	0xbc73223f	-0.014839708
14	0xbdc84d00	-0.097803116
15	0x3c464df4	0.012103546
16	0xbd06602b	-0.032806557
17	0xbde40d35	-0.111353315
18	0xbc8cb5ec	-0.01717659
19	0x3dfd9bcf	0.12383234
20	0x3d430103	0.047608387
21	0xbea25fea	-0.31713802
22	0x3d897c85	0.06713203
23	0x3da73f6b	0.08166393
24	0xbe35fd5a	-0.17772427
25	0xbe3ea4ed	-0.18617602
26	0xbde4c99d	-0.11171267
27	0x3aca440b	0.0015431655
28	0xbdc31e8d	-0.095273115
29	0xbe1e33ca	-0.15449443
30	0x3d135e2c	0.03597848
31	0xbe7792bf	-0.24177073
32	0x3c53cce9	0.012927272
33	0xbcc15380	-0.023599386
34	0xbe2718f0	-0.16318107
35	0x3e90a59d	0.28251353
36	0xbebeb9b0	-0.37251043
37	0x3e28ae94	0.16472846
38	0xbe82da9d	-0.25557414
39	0xbe6167c4	-0.2201224
40	0xbcb4618c	-0.02201917
41	0x3e5daf81	0.2164898
42	0xbe441253	-0.19147615
43	0xbe0ae80a	-0.13565078
44	0x3dcf8dac	0.10134444
45	0x3e318895	0.17337258
46	0x3e675abd	0.22593208
47	0x3e09a7c1	0.134429
48	0x3d3d53b0	0.04622239
49	0x3df5b7ae	0.11997925
50	0xbda37ed3	-0.07983174
51	0xbc6b265e	-0.014352409
52	0x3e907de0	0.28221035
53	0xbe618eb3	-0.22027092
54	0xbb1d74da	-0.0024025948
55	0xbe11cd40	-0.14238453
56	0xbc5d20a9	-0.013496556
57	0xbd774aaa	-0.06037394
58	0x3c8fee53	0.017569697
59	0xba123ac0	-0.00055782124
60	0x3b125917	0.0022330934
61	0x3e118868	0.14212191
62	0x3e0a47d2	0.1350396
63	0xbe373088	-0.17889607
64	0xbdf558b6	-0.11979811
65	0x3d075106	0.033036254
66	0xbe0f697c	-0.14005083
67	0x3ebe703a	0.37194997
68	0xbe2bf0d0	-0.16791081
69	0x3dd59001	0.10427857
70	0xbdea3f9d	-0.114379145
71	0xbe8d9059	-0.2764919
72	0xbd15de79	-0.03658912
73	0xbe183626	-0.14864406
74	0xbd55d721	-0.052207116
75	0xbc940d44	-0.018072732
76	0x3db23023	0.087005876
77	0x3e247d87	0.1606351
78	0x3da6fab7	0.08153289
79	0xbe0082bc	-0.12549871
80	0x3e43ba0e	0.19113943
81	0x3da5589f	0.08073544
82	0x3ccf8fbd	0.025337094
83	0xbd40eddc	-0.04710184
84	0x3e3b5297	0.18293224
85	0xbe3ea90d	-0.18619175
86	0xbd856301	-0.06513024
87	0xbd8f6377	-0.07001393
88	0xbde9e314	-0.11420265
89	0x39849547	0.00025288222
90	0x3e140592	0.1445525
91	0xbe5720c1	-0.21008588
92	0xbde873cf	-0.11350214
93	0xbda9fa95	-0.08299748
94	0xbeab7e1e	-0.33494657
95	0x3e9857ff	0.29754636
96	0xbdea0aec	-0.114278644
97	0x3dbb8bc2	0.09157516
98	0xbdbe9a65	-0.09306792
99	0x3ccfb270	0.02535364
100	0xbed1ff73	-0.41015205
101	0xbd0128a1	-0.031532887
102	0xbde1a3a6	-0.110175416
103	0xbdf9a9ed	-0.12190614
104	0xbcc56924	-0.024097987
105	0x3d48dbf5	0.049037892
106	0xbe2df606	-0.16988382
107	0xbe651ed6	-0.22375044
108	0xbd18c3c6	-0.03729608
109	0x3d9e5cbd	0.07732532
110	0x3da1eb91	0.07906259
111	0x3bd30ed7	0.006440978
112	0xbc9ebb72	-0.01937649
113	0xbbf5f2f3	-0.0075057684
114	0x3cc6c13e	0.024262067
115	0xbd92218a	-0.07135303
116	0x3d4015d5	0.04689582
117	0xbec409b5	-0.38288656
118	0xbd881551	-0.06644691
119	0x3e1843a8	0.14869559
120	0xbd5e3bd7	-0.054256286
121	0xbcaef860	-0.021358669
122	0xbd8a5e2e	-0.067562446
123	0xbd93de82	-0.07220174
124	0xbe6eaf1c	-0.23308986
125	0xbd874dc2	-0.06606628
126	0xbd9ea37f	-0.07746028
127	0xbe8afdfb	-0.27146897
128	0x3e3f9c5e	0.18711993
129	0x3de4aa6b	0.11165317
130	0xbddb3d11	-0.10705007
131	0xbd685212	-0.056718893
132	0xbdb4a694	-0.08820835
133	0xbdca1d8a	-0.098689154
134	0xbd709f7d	-0.05874585
135	0xbe6a9b8f	-0.22910903
136	0x3e298f92	0.16558674
137	0x3decaa55	0.11555926
138	0xbd74c043	-0.059753668
139	0xbea9e01a	-0.33178788
140	0xbd4347d8	-0.047675937
141	0xbd807300	-0.062719345
142	0x3e2ee543	0.17079644
143	0x3d469751	0.04848415
144	0x3dc7e41b	0.097603045
145	0x3def31d2	0.11679424
146	0x3c5496fc	0.012975451
147	0xbdef6144	-0.11688474
148	0xbddb656c	-0.10712704
149	0xbe3286d2	-0.17434242
150	0xbdc7f2eb	-0.0976313
151	0xbe15eac0	-0.14640331
152	0xbc75d9b2	-0.015005516
153	0xbdf4eb2e	-0.119589195
154	0x3e49634c	0.19666785
155	0x3d4ca472	0.049961515
156	0xbe268c10	-0.16264367
157	0xbe1ac6eb	-0.15114944
158	0xbd7474e8	-0.059681803
159	0xbdfeb472	-0.12436761
160	0xbe615c75	-0.22007926
161	0xbd572192	-0.05252225
162	0xbe55448c	-0.2082693
163	0xbe744a1f	-0.238564
164	0x3e225f90	0.15856767
165	0xbd2fae3b	-0.04289077
166	0x3d903f57	0.07043331
167	0xbe3d916f	-0.1851251
168	0x3cd99e80	0.026564837
169	0xbd1a8bdc	-0.037731037
170	0xbe12834c	-0.14307898
171	0xbe5a73e8	-0.21333277
172	0xbe2305ff	-0.15920256
173	0xbe82aa86	-0.25520724
174	0xbc91276e	-0.017718997
175	0xbe9ca652	-0.30595642
176	0x3de111fb	0.109897576
177	0xbdddeb58	-0.10835904
178	0xbde442f2	-0.11145581
179	0xbe166936	-0.14688572
180	0xbeb06df9	-0.34458902
181	0x3db55e71	0.08855904
182	0xbd99b58c	-0.075053304
183	0x3d6835b3	0.056691837
184	0xbdcea68d	-0.10090361
185	0xbc7a8464	-0.015290353
186	0x3e41f736	0.1894196
187	0xbd8741d2	-0.06604351
188	0xbdffd3ce	-0.124915704
189	0xbe1b58f5	-0.15170653
190	0xbe168838	-0.14700401
191	0x3e65121c	0.2237019
192	0x3cd32a9c	0.025777154
193	0xbd9a3661	-0.07529903
194	0x3d31666f	0.04331058
195	0xbd1e0e3a	-0.038587786
196	0xbe8bd0b2	-0.2730766
197	0x3d53996d	0.05165999
198	0x3db635c9	0.088969775
199	0xbc09be6e	-0.008407218
200	0x3cc88527	0.024477554
201	0x3e393b0e	0.18088934
202	0x3d9a0eca	0.07522352
203	0xbec4f1a7	-0.38465616
204	0xbe6a109e	-0.22857901
205	0xbd6a2a93	-0.05716951
206	0x3c3e2f2f	0.011607929
207	0xbc15b019	-0.009136223
208	0xbd2a636c	-0.041598722
209	0x3d3304b6	0.043705665
210	0x3c8b0190	0.016968518
211	0xbe35f964	-0.17770916
212	0xbe03ba5a	-0.12864056
213	0xbe64cbf2	-0.22343424
214	0xbe3101f0	-0.17285895
215	0x3e42bec1	0.1901808
216	0xbe18b7dd	-0.14913888
217	0xbe07a7a3	-0.13247542
218	0xbd6beece	-0.05760079
219	0xbdee1e81	-0.11626912
220	0xbeb43a69	-0.35200813
221	0xbeb08b6f	-0.3448138
222	0x3c89a0ec	0.016800366
223	0xbd3f1da9	-0.046659146
224	0x3d3f55fc	0.04671286
225	0xbd8957fc	-0.06706235
226	0xbba3db7f	-0.005000531
227	0xbd572302	-0.05252362
228	0xbd50ab8d	-0.050944854
229	0x3d6db9a4	0.05803837
230	0x3d337862	0.043815978
231	0x3dcd7446	0.10031943
232	0x3d541398	0.0517765
233	0xbe075557	-0.13216148
234	0x3e04d18c	0.12970561
235	0xbea3dedd	-0.3200597
236	0xbebbf9ca	-0.3671401
237	0xbbe22169	-0.0069009555
238	0xbe1acb71	-0.15116669
239	0xbe1cde85	-0.1531926
240	0xbb8ea598	-0.0043532364
241	0x3cace396	0.021104615
242	0xbca5cfd6	-0.020240705
243	0xbed32188	-0.4123652
244	0xbe19b142	-0.15009025
245	0xbc126ab4	-0.008936573
246	0xbd053143	-0.032517683
247	0x3d21e08e	0.039520793
248	0x3d9e2e29	0.07723648
249	0x3bd735bc	0.006567685
250	0x3dd62aec	0.104574054
251	0xbd3bb3f8	-0.04582593
252	0xbea7534f	-0.32680747
253	0xbe2d481d	-0.1692204
254	0xbd460c67	-0.04835167
255	0x3db48bd9	0.08815736

model/conv2d/Relu;model/conv2d/BiasAdd;model/conv2d/Conv2D;model/conv2d/BiasAdd/ReadVariableOp/resource f4 [32]
0	0x3a0a2d80	0.0005271062
1	0xbe1d4697	-0.15358959
2	0xbea9bf5e	-0.33153814
3	0xbb929610	-0.0044734553
4	0xbd0c2ae0	-0.034220576
5	0xbde8308c	-0.113373846
6	0x3db3e278	0.0878343
7	0xbb7fc540	-0.0039027482
8	0x3da0cf6a	0.07852061
9	0xbd10aad6	-0.03531917
10	0xbd37c684	-0.044867054
11	0x3d43222b	0.047640007
12	0xbd1eb760	-0.0387491
13	0xbdb9103f	-0.09036302
14	0xbd00acd2	-0.031414814
15	0xbe0ce36a	-0.13758627
16	0xbe65eeb3	-0.22454338
17	0xbca42763	-0.020038312
18	0xbe4c8a92	-0.19974735
19	0x3d2c4f33	0.042067718
20	0xbe138c6f	-0.1440904
21	0x3d8a2e68	0.067471325
22	0xbda5ed58	-0.0810191
23	0xbdc92983	-0.09822371
24	0xbd2c1fb3	-0.04202242
25	0xbd7ed591	-0.06221539
26	0xbe8b2875	-0.27179304
27	0xbe6c3d13	-0.23070173
28	0x3dc474f8	0.095926225
29	0xbcdf06a1	-0.02722484
30	0xbd1ec59c	-0.038762674
31	0xbe425cc4	-0.189807

model/conv2d/Relu;model/conv2d/BiasAdd;model/conv2d/Conv2D;model/conv2d/BiasAdd/ReadVariableOp/resource1 f4 [32, 3, 3, 1]
0	0xba8a2ba1	-0.0010541567
1	0xb961d6e6	-0.00021537728
2	0xbb40685f	-0.0029359085
3	0x3844ac68	4.6890607e-05
4	0x3b3c1b79	0.0028702898
5	0x39598124	0.00020742841
6	0xbae74621	-0.0017644801
7	0xbb28a3f9	-0.00257325
8	0x3aabed63	0.0013117011
9	0x3a82409a	0.0009937466
10	0x3abd891a	0.0014460415
11	0xbb397a8c	-0.0028301803
12	0xbb0e4655	-0.0021709402
13	0x3a383a11	0.00070276955
14	0xba899cda	-0.0010499016
15	0xb8e81451	-0.00011066406
16	0xba7c4cf9	-0.0009624507
17	0x3a80b7dc	0.0009820419
18	0x3a5fd544	0.0008538554
19	0x3a2e123a	0.0006640289
20	0x3ab52da0	0.0013822801
21	0x3a3ee128	0.00072814757
22	0x3a126a2f	0.00055852806
23	0x3a96a3e7	0.0011492939
24	0xbb106259	-0.0022031276
25	0xbb186b6b	-0.0023257385
26	0x3aac6fa5	0.0013155831
27	0xbb81784d	-0.0039511085
28	0xba47d216	-0.0007622553
29	0x3ae7ff62	0.0017700011
30	0x3a9b9d5d	0.001187246
31	0x3b2b4acb	0.002613711
32	0xbaf52dba	-0.0018705644
33	0xb9566aad	-0.0002044837
34	0xba4f961e	-0.00079187925
35	0xbb37350b	-0.00279552
36	0xbb09b8d0	-0.0021014698
37	0xbb00799c	-0.0019603735
38	0xbb19ce41	-0.0023468884
39	0x3a554b69	0.0008136542
40	0x3a02fac4	0.00049964734
41	0x399ec3af	0.00030281904
42	0x3ab27463	0.0013615008
43	0x39b93ffd	0.00035333625
44	0x3a9a4797	0.0011770603
45	0x3a3d3a38	0.0007218453
46	0xba915152	-0.0011086857
47	0x3884fdf2	6.3415515e-05
48	0xbb2afdb7	-0.0026091167
49	0x39e2a3f5	0.00043228237
50	0xbaa7f19f	-0.0012813098
51	0xb9d08470	-0.00039771525
52	0xb98fc65a	-0.0002742287
53	0x3a525dcf	0.0008024843
54	0x3a025da8	0.00049730623
55	0x3a760427	0.0009384774
56	0x3b1e7d6f	0.002418365
57	0xbb16dcec	-0.0023019863
58	0x392eedc4	0.00016682508
59	0xb8abe7d8	-8.1971e-05
60	0xbaeb39f4	-0.0017946349
61	0xbb493199	-0.0030699729
62	0xbb000243	-0.0019532598
63	0xbab1a200	-0.0013552308
64	0x3b0c0ea2	0.0021371027
65	0x3afcf76d	0.0019299813
66	0xbb717784	-0.0036844919
67	0xbb15e0bc	-0.0022869548
68	0xbaa2e49f	-0.0012427754
69	0x3aafc897	0.0013411221
70	0xba8dc883	-0.0010817203
71	0xb99db75e	-0.00030081993
72	0xba2b2a23	-0.0006529411
73	0xbb194159	-0.0023384898
74	0xbb46957e	-0.0030301507
75	0x3a5bb4d1	0.0008381131
76	0x39165292	0.00014335875
77	0xbb43afef	-0.0029859503
78	0x3b488fd3	0.0030603304
79	0x3abc1950	0.0014350805
80	0xbad97dd5	-0.0016593287
81	0xba6acd42	-0.00089569774
82	0x3ae6b3dc	0.001760121
83	0xbb221eca	-0.002473759
84	0xbad2ff12	-0.0016097745
85	0x3b011148	0.0019694138
86	0xbadd39f7	-0.0016878237
87	0xbb030a39	-0.0019995107
88	0xba38fe96	-0.0007056979
89	0x38cfb5e0	9.904406e-05
90	0x39a15367	0.00030770453
91	0x3a6f1bb3	0.0009121254
92	0x3a828e56	0.0009960632
93	0x39c772f0	0.00038041873
94	0x3a150ea9	0.00056860835
95	0x39dcaa8c	0.00042088737
96	0xbb5d033e	-0.0033723856
97	0xba1d13bd	-0.0005992016
98	0xbb6bb411	-0.0035965482
99	0x3a316f59	0.0006768606
100	0xb7cf6e6a	-2.4727738e-05
101	0xbb12f7db	-0.0022425565
102	0x3b25039f	0.002517916
103	0xbb194ce5	-0.002339178
104	0xbaba74d9	-0.0014225497
105	0xbb120e3c	-0.0022286316
106	0xbabff5c7	-0.0014645391
107	0x3aaac318	0.0013028113
108	0x3b35bf7b	0.002773254
109	0x390f9a0f	0.00013694934
110	0xb8e27efa	-0.00010800171
111	0x3ab6245d	0.0013896335
112	0xba50b70d	-0.0007961847
113	0xbadb20ba	-0.0016718127
114	0xb98fa6a4	-0.00027399242
115	0xb9d67284	-0.00040902582
116	0xbb540bb8	-0.0032355618
117	0xbb185d7c	-0.002324908
118	0xb8593723	-5.178818e-05
119	0x3a8e1d96	0.0010842558
120	0xb932d194	-0.00017053477
121	0x3a102a6a	0.0005499484
122	0x38bb3f81	8.9286834e-05
123	0x3a932e0f	0.0011228936
124	0xbad7187b	-0.0016410494
125	0xbabb9bee	-0.0014313438
126	0x3a83b1e4	0.0010047522
127	0x3af5ae41	0.0018743948
128	0xbb9bcd2d	-0.0047546835
129	0xbb1da6ab	-0.002405564
130	0x3ac66148	0.0015135193
131	0x3941941a	0.00018461086
132	0xbb1210c1	-0.0022287818
133	0x393ac527	0.00017811787
134	0x3926eb08	0.0001591855
135	0xbac54f93	-0.0015053622
136	0xb42dfd59	-1.6204048e-07
137	0x3aac39fe	0.0013139842
138	0x3a97d45b	0.0011583673
139	0xb9d9c9e0	-0.00041539874
140	0xbac11e27	-0.0014733718
141	0xbb0bd0e0	-0.0021334216
142	0xb919242c	-0.00014604692
143	0x39ffe28e	0.00048806187
144	0x3a8b7207	0.0010638841
145	0x3a56765f	0.0008181091
146	0xbafeca9e	-0.0019439047
147	0x3a73e51c	0.00093038543
148	0xba69d6ec	-0.00089202705
149	0xbad7ec58	-0.0016473634
150	0x3ace4e6c	0.0015739924
151	0x3aace2b9	0.0013190127
152	0xba0b2b0c	-0.00053088437
153	0xbb0b2a59	-0.0021234958
154	0x3ace7d96	0.001575398
155	0xbb3cfab5	-0.0028835956
156	0xb9ed898f	-0.00045306652
157	0x3a75b183	0.00093724596
158	0xbaff74da	-0.001948978
159	0xbb449aac	-0.0029999418
160	0x3a3969ab	0.00070729357
161	0x3a954d13	0.0011390768
162	0x3946b240	0.00018949155
163	0xb9cebda4	-0.00039432675
164	0x3a79fd63	0.0009536354
165	0xb8e1d8b0	-0.00010769197
166	0xb90360c7	-0.00012529186
167	0xbacd6495	-0.0015670235
168	0xba580153	-0.00082399434
169	0xba4f2511	-0.00079019467
170	0x3a5a4042	0.0008325615
171	0x3ac7a0f4	0.0015230463
172	0x3a65d812	0.0008767854
173	0xbb0ec927	-0.0021787377
174	0xbace6cd6	-0.0015748988
175	0xba8e6147	-0.0010862731
176	0xba5864ae	-0.00082547485
177	0x3afb8957	0.0019190711
178	0xbb17714f	-0.0023108309
179	0xbae29084	-0.0017285501
180	0xbb1ced49	-0.0023945144
181	0xba342a9c	-0.00068728044
182	0x3ac8fcb1	0.0015334097
183	0x3b22488e	0.0024762484
184	0x3ac1bf4e	0.0014781745
185	0x39be3454	0.00036278612
186	0x3a846711	0.0010101517
187	0xba99ad53	-0.0011724628
188	0xbb31be2a	-0.0027121403
189	0xbace5194	-0.0015740865
190	0xbb957354	-0.0045608673
191	0xbb2594e2	-0.0025265743
192	0x39cfd091	0.0003963751
193	0x3b3a0fd6	0.0028390787
194	0xbb0a9856	-0.0021147928
195	0x39b0c6cc	0.0003371745
196	0x3b037a32	0.0020061848
197	0x38373080	4.367577e-05
198	0xbb37c485	-0.0028040719
199	0xba947896	-0.0011327441
200	0xba21f797	-0.00061785564
201	0xba372a22	-0.0006987174
202	0x37c67ff4	2.3663022e-05
203	0x3aa7665b	0.0012771593
204	0x3a4b0c2c	0.0007745649
205	0xbab1221c	-0.0013514194
206	0x3adf3170	0.0017028283
207	0x3a416cd7	0.0007378584
208	0xbb19ba57	-0.0023457014
209	0x3b00e584	0.0019668052
210	0xba824923	-0.0009940009
211	0xbaec0771	-0.0018007589
212	0x3a14b2bd	0.0005672386
213	0x3a273746	0.0006378781
214	0xbad717f4	-0.0016410337
215	0xba8d84ea	-0.0010797058
216	0xbb0ca30a	-0.0021459484
217	0x3a7c07ff	0.00096142286
218	0xba68e702	-0.00088845205
219	0xbaf7d288	-0.0018907348
220	0x3b2454e4	0.0025075013
221	0xbb0d7a0c	-0.0021587638
222	0x3acb1fc4	0.0015497138
223	0xb995bfa1	-0.0002856227
224	0xbab50868	-0.0013811709
225	0x381b7607	3.70648e-05
226	0xb99ee029	-0.0003030312
227	0x39df7217	0.00042618878
228	0xbaa24fef	-0.0012383441
229	0x3ae3e4c7	0.0017386907
230	0xbaa7121e	-0.0012746488
231	0xba9d52d4	-0.0012002834
232	0xba8e00f8	-0.0010834029
233	0xba7c3fce	-0.0009622545
234	0x39daf3d8	0.00041761878
235	0x3a4f2785	0.0007902312
236	0xbb4210a2	-0.0029611965
237	0x395ac8ec	0.0002086495
238	0x3a3079ce	0.00067320175
239	0xbb1957a0	-0.0023398176
240	0x3b03d3ea	0.0020115324
241	0xba502317	-0.0007939799
242	0x3b3c1eb0	0.0028704815
243	0x3a39272f	0.0007063029
244	0x3a17786f	0.0005778139
245	0xba70f7cd	-0.00091921986
246	0xbaf6da0c	-0.0018833294
247	0xb9d245c9	-0.00040106315
248	0xb9382b32	-0.00017563699
249	0x37e72049	2.755238e-05
250	0x39c083b9	0.00036719235
251	0x398ac07b	0.0002646482
252	0x3affbc1a	0.0019511015
253	0x3aa24068	0.0012378814
254	0xbb726543	-0.0036986626
255	0xba588022	-0.00082588394
